train/vit_mnist_epoch4_batch16.pt (torch, 256789 bytes, 302 tensors)

classEmbedding f4 [1, 10]
00000000: a793 063d cb1a 803f 2421 4dbf 2d0a b23e
00000010: 7258 8e3f dd7d 8c3f 8e1d d1bc 953e da3e
00000020: dfc2 df3e 9fb4 553e
0.032855656 1.0008177 -0.80128694 0.34773389 1.1120741 1.097591 -0.025526788 0.4262587
0.43703362 0.20869683

positionalEmbedding f4 [50, 10]
00000000: 0bac a4be 2bb9 0abd a8e3 103f 589b 9cbf
00000010: a68b e63e 2dfd 9bbd 2271 18bf 1925 13bf
00000020: 4653 233e d736 dc3e 2146 16bf a2d9 99bf
00000030: b647 093f 00c2 c43a 8f41 0b3e aea6 62bf
00000040: f3d1 6f3e 4edc 06c0 0711 433f 2236 b73e
00000050: 7449 41be 5ec0 513f 1b75 babf 6ca6 813f
00000060: 90d7 a13f ee62 37bf 0fa6 e7be 65f9 f93e
00000070: 8362 c4bf 72a2 33bf 6fb0 863e 6744 b73f
00000080: 9a92 0bc0 04d2 713f 50a3 dc3e 0b4a a0bf
00000090: c3d4 043f 55ed 4c3e ed09 fabf ff8e 8fbf
000000a0: 0689 2cbc 751d 9c3d 1d9f 95bf 2311 9fbf
000000b0: 7b66 a6bd e827 9d3e 0b6e 98be df9f 24be
000000c0: 55b5 a23f 3ee9 1dbf 3677 8f3e 3ff9 93bf
000000d0: e970 15bf e6e0 fabd f277 943f 5d1a b93f
000000e0: ada8 cfbf 951c ba3f 8408 6dbe fe4a 21be
000000f0: 9347 a63f 6598 29bf 2dd0 1ebf 5c43 b13e
00000100: e683 263f 9c7f 51bf d0d3 c63f d156 693f
00000110: 575c 3bbf f580 f23e 53d8 b4be 30dd 27be
00000120: 16f7 303e 4ace 3c3e 7cf7 f0be 9885 7bbf
00000130: b74b c7be 2ec7 093e 6317 ae3d baeb 8dbf
00000140: 1dca 11bf 923b 6e3f 9c3b 503f dc49 cdbe
00000150: c9d2 9a3e f987 20bf 7320 4abf 23b9 1fbf
00000160: 2a36 ef3e 83fc ac3f 4661 eabf 8532 4abe
00000170: 7e70 95be fdfa da3e 6d98 a9bd 0e7e 4dbf
00000180: 1670 7fbe 2be0 b6bf 3ac1 003e 0052 233f
00000190: 8e3a 9dbc e868 9dbe ad4c 5abf 4d5e 283d
000001a0: 5879 ac3e f56e fc3f 90db 683e f871 3a3f
000001b0: 959a 82be ea2d 8a3f 1b56 a8bf 6e9a 09bf
000001c0: e506 2abf f9cc 753c 4ac6 44bf 2e27 22c0
000001d0: 38c0 f93e d617 25be 3767 15c0 d4bc 7e3d
000001e0: 4945 db3d f254 093f 32fa 953d fddf e13d
000001f0: 194d 853f aed7 c7be c2e8 0b3d ac51 a0bc
00000200: 3b01 5c3f 2e3a 8b3e 0adf 7dbc 20e3 363d
00000210: 9043 ab3e 67f7 9cbf 1f64 d73f 892f afbf
00000220: e956 b2bf eff5 35bf 523b 6f3e 6548 11bf
00000230: 3af4 573f 5d8a fabf 05d6 9fbf 4dea 1bbf
00000240: 4a85 dcbf 1d77 263e a5ce 713e fcab c3be
00000250: 75b5 7d3f a883 b9be 2381 dc3d 8fb3 223e
00000260: 9c17 5b3f 9192 15c0 8b05 f5bf e941 4fbf
00000270: 5bac 9a3f c965 f93d c87a b1bf 9797 1ebe
00000280: acb5 973f 6a37 28bf 31a2 973d 459e 2a3d
00000290: 67ed 57bf 72f6 77bb f3a0 0240 d8dd fe3c
000002a0: fdef 353d 19c1 ea3c c77c da3f 2671 0e3f
000002b0: 9043 e7be 0d4c 653f 582d acbf 80da ddbb
000002c0: 2038 5ebf 1be9 a7bf 0b27 343f 87c4 b93e
000002d0: 9728 0940 56f8 e33d 61f2 ecbe f980 12bf
000002e0: 827f 1ebf e9f8 dfbf 87f1 de3f 4239 e13f
000002f0: af4a 49bf 25e5 04c0 4f25 c63f be84 833e
00000300: 7152 36bf f865 b0be dc8e 0ebf 4e1c 3bbe
00000310: 3058 113f 7481 f7be 8c53 38be 5acc dfbd
00000320: abad ca3f 3cf7 abbe cd6c 9d3f 61ba 333f
00000330: ab43 b9be 172f 25c0 5b66 82bf 998a 03be
00000340: f0b1 513e f005 88be 99ca b2bf cb6c cd3d
00000350: 8d1c 02bf 02cd 6fbe 458b 07be 7aa8 c53f
00000360: b0ec 803e e4c5 04bf e909 7abf 4971 e6bf
00000370: 37d0 8cbe 3193 753e 798d 6c3f ad2e 1e3f
00000380: c5bf 61bf 40f4 6e3e d5ff af3e 66bd 1f3f
00000390: 85d9 933f 1b40 88bf e0d5 f9be 9ee6 d83f
000003a0: d065 d43e 67dd c0bf 7062 9fbf 79e5 e4bd
000003b0: 9fc5 23c0 02b4 5dbf 76b2 fe3e 11e4 02c0
000003c0: 4a19 f33e 6446 673e 7c8e 1040 2ec1 bb3d
000003d0: e69d febe 23eb 853f 1da9 ce3f d99a f3be
000003e0: 4eb7 863f ee16 9ebd ff97 23bf 25d9 e73e
000003f0: b1bc 293f 3ac4 693f 83f6 73bf 2754 49be
-0.32162508 -0.033867996 0.56597376 -1.2234907 0.45028418 -0.07616649 -0.59547627 -0.5747848
0.15949735 0.4301059 -0.5870076 -1.2019541 0.5362505 0.001501143 0.13599227 -0.88535583
0.23419933 -2.1071963 0.76197857 0.35783488 -0.18875676 0.81934154 -1.4566988 1.0128913
1.264391 -0.7163533 -0.4524388 0.48823085 -1.5342563 -0.70169747 0.26306483 1.431775
-2.1808228 0.94461083 0.43093348 -1.2522596 0.5188715 0.2001241 -1.9534279 -1.1215514
-0.010530716 0.07622806 -1.1689183 -1.2427105 -0.08125015 0.3069451 -0.29771456 -0.16076611
1.2711588 -0.61684024 0.28020638 -1.1560439 -0.5837541 -0.12249927 1.1599104 1.446117
-1.6223351 1.4539973 -0.2314778 -0.15751263 1.2990593 -0.6624816 -0.620364 0.34621704
0.6504501 -0.8183534 1.553339 0.91148096 -0.73187774 0.4736401 -0.35321292 -0.1639297
0.17281756 0.18438068 -0.47063816 -0.9825072 -0.38924953 0.13454887 0.085005544 -1.1087563
-0.56949025 0.9305965 0.81340957 -0.40095413 0.3023894 -0.6270748 -0.78955764 -0.6239187
0.4672101 1.351456 -1.8310935 -0.19745834 -0.29187387 0.42769614 -0.08281026 -0.8027047
-0.24945101 -1.4287161 0.1257371 0.63797 -0.01919296 -0.307441 -0.8527325 0.041105557
0.33686328 1.9721361 0.22740006 0.7283015 -0.25508562 1.0795262 -1.3151277 -0.53751266
-0.6641677 0.015002483 -0.76865065 -2.5336413 0.48779464 -0.16122374 -2.3344247 0.0621918
0.107065745 0.5364524 0.073231116 0.110290505 1.0414153 -0.39031738 0.034157522 -0.019570194
0.8593938 0.27192825 -0.015495071 0.044650197 0.33449984 -1.2263001 1.682743 -1.3686382
-1.3932773 -0.7107839 0.23362473 -0.5675109 0.84357035 -1.9573475 -1.2487189 -0.6090439
-1.7228177 0.16256376 0.23613985 -0.3821715 0.99105006 -0.36233258 0.107668184 0.15888809
0.855829 -2.3370707 -1.9142317 -0.80959946 1.2083849 0.12177617 -1.3865595 -0.15487514
1.1852317 -0.65709555 0.074039824 0.041654844 -0.8434662 -0.0037836102 2.0410736 0.031111643
0.044418324 0.02865653 1.7069329 0.556414 -0.45168734 0.8956917 -1.3451338 -0.006770432
-0.8680439 -1.3118013 0.70372075 0.3628275 2.1431024 0.11131351 -0.4627867 -0.57228047
-0.6191331 -1.7497836 1.7417458 1.7595599 -0.78629583 -2.0764859 1.5480136 0.25687212
-0.71219546 -0.34452796 -0.55686736 -0.18272516 0.5677519 -0.48340952 -0.1800062 -0.10927649
1.5834249 -0.33587062 1.2298828 0.70206267 -0.3618444 -2.5809991 -1.0187486 -0.1284584
0.20478034 -0.2656703 -1.3968078 0.10030516 -0.50824815 -0.23418048 -0.13236721 1.544204
0.25180578 -0.5186446 -0.9767137 -1.8003322 -0.27502605 0.2398193 0.9240337 0.6178997
-0.8818324 0.23335361 0.34374872 0.62398374 1.1550757 -1.0644563 -0.48795986 1.6945379
0.41483927 -1.5067567 -1.2451916 -0.11176581 -2.5589368 -0.86602795 0.4974553 -2.04517
0.47480232 0.22585446 2.2586966 0.091677055 -0.49729842 1.0462383 1.6145359 -0.47579077
1.052469 -0.07719217 -0.639038 0.45282856 0.66303545 0.9131504 -0.9529802 -0.19661008

weight f4 [10, 16]
00000000: 222d 40be 765b 50be a868 083d c0bc d3bc
00000010: 68d5 0c3e c024 d53d 1abd 2ebe 684b da3d
00000020: c0cc 3abd 4ae7 7bbe 81e3 9cbe 94cf eb3d
00000030: a0a0 993c f8e2 683d ef55 a8be ba9a 933d
00000040: 767b 51be c065 38be 6839 aabd 2e8d 53be
00000050: 6c95 6b3e 7c5a 6ebe a635 0bbe 1a9d 033e
00000060: e0e5 59bc b0b3 b63c dca6 5b3c 0164 8f3d
00000070: 60fd 5c3e 4ed2 403e 62ee 97be 0598 293d
00000080: 08a5 a6bd 8ed3 32be d881 0c3e e4c0 703e
00000090: c002 07bc f4ac bf3d a271 37be 80a1 ca3c
000000a0: b8dd 4e3e 8665 1e3e 067a 11be 2605 9d3e
000000b0: be7b 643e 80dc 653b c3fd f0bd 6f50 823e
000000c0: 2063 8f3d 0092 663d 28c2 943d 1a18 413e
000000d0: 008e c53d 5c95 d2bd de25 313e 8610 163e
000000e0: b89a 3cbe 40ac 543c f3ce 4a3e 548a f1bd
000000f0: 9ecc 4dbe 4815 2f3e 9093 83bb 2cf5 273d
00000100: 5483 7cbe 3812 97bd 907b 0bbe 206f b73d
00000110: 5ca6 49be 1c8e b7bd 1022 073e a433 033e
00000120: b892 d93d d210 3b3e 67ad 2cbd a3c5 ab3c
00000130: 00ee f53b fcdd 033e 6945 ea3d fc37 20be
00000140: d0d8 6bbd bcbf eabd 86ec 0cbe 804e ebbd
00000150: 9cec ef3d 5c28 1ebe ac88 a1bd 1ce5 13be
00000160: dc4a fe3d 2867 07be dd6c 213e 2425 413e
00000170: 7498 9b3d b06c d3bc 319d 2dbe 7d45 8fbd
00000180: c078 d03b bc90 adbd fe84 1e3e 6c44 06be
00000190: 6039 dd3c b45d 79be 8afd 19be b89e 7a3d
000001a0: f878 0a3e 4a05 36be 1f50 843e 5ef9 27be
000001b0: aca1 7c3e 54bc 613e 100a 2a3d d438 333e
000001c0: 6880 14bd c86c 493d 4aa6 21be c08c c73c
000001d0: 2809 843d 264b 253e 3cdb f53d c680 3abe
000001e0: 00c8 62bd 4023 e4bd 948e 01bd 9616 04be
000001f0: c8de 663d fa59 5bbe ec4d 7f3e 120f bcbd
00000200: fe13 1f3e 3cea 473e f85c 83bd cca3 d3bd
00000210: c034 46be 346d 2b3e 00fc 593c ac20 52be
00000220: fcfe f43d 56b7 273e a54d 75be 21fc 233e
00000230: c039 5d3c 9893 69be 1d53 24bd dbbb 49bd
00000240: 7aa4 1a3e 0403 1c3e c056 ee3d 5660 663e
00000250: b696 34be 3609 643e 3012 91bc 3ccf 5bbe
00000260: 80f5 92bd 1081 903c caa1 093e 5801 ec3c
00000270: d609 0c3e 6825 e6bd e27a a53c ea06 093e
-0.18767217 -0.2034739 0.033302933 -0.025846839 0.13753283 0.104074 -0.17064324 0.10658914
-0.04560542 -0.24599949 -0.30642322 0.11514202 0.01875335 0.05685708 -0.32878062 0.07207246
-0.20457253 -0.18007565 -0.083117306 -0.20659325 0.23006219 -0.23276705 -0.13594684 0.12852898
-0.013299435 0.022302479 0.013406482 0.07001496 0.2158103 0.18830225 -0.2967406 0.041404743
-0.08136946 -0.17463514 0.13721406 0.23511082 -0.008240402 0.0935916 -0.17914441 0.024735212
0.20201766 0.15468416 -0.14206704 0.3066799 0.22312829 0.0035074055 -0.11767151 0.2545199
0.070013285 0.05629158 0.07263595 0.1885685 0.09646225 -0.10282394 0.17299601 0.1465474
-0.18418396 0.012980521 0.19805507 -0.11793962 -0.20097587 0.17097962 -0.0040153936 0.0410053
-0.24659473 -0.07376522 -0.13621354 0.08956742 -0.19692367 -0.08962652 0.13196588 0.12812668
0.106236875 0.18268135 -0.042157557 0.020968264 0.0075051785 0.12877649 0.1143902 -0.15646356
-0.057579815 -0.11462352 -0.13762102 -0.11489582 0.117150515 -0.15445083 -0.07887396 -0.14442867
0.12416622 -0.13222945 0.15764184 0.18861824 0.075974375 -0.025808662 -0.16954495 -0.06995676
0.006362051 -0.084748715 0.1548042 -0.13112038 0.027004898 -0.24352151 -0.15038124 0.061186522
0.13522708 -0.17775455 0.25842378 -0.1640372 0.24671048 0.22044498 0.041513503 0.17502147
-0.03625527 0.049176008 -0.1578609 0.024359107 0.06447059 0.16141948 0.12004706 -0.18213186
-0.055366516 -0.11139536 -0.031630114 -0.12899241 0.056364805 -0.21421042 0.24932069 -0.09182562
0.1553497 0.19522947 -0.06414217 -0.10333976 -0.1935606 0.16740876 0.01330471 -0.20520276
0.11962697 0.16378531 -0.239554 0.16014148 0.013502538 -0.22810209 -0.040118326 -0.04925142
0.15101805 0.15235525 0.1163764 0.22497687 -0.17635617 0.22269139 -0.017708868 -0.21465772
-0.07175732 0.017639667 0.13440624 0.028809234 0.13675627 -0.112376034 0.020200197 0.13381544

bias f4 [10]
00000000: ad7f cc3e d1f7 32be aae1 0f3e 0cd8 183e
00000010: 6548 a1be 12b7 86be 8076 8b3e 1de0 e43d
00000020: d19e 81be afd0 b23e
0.3994116 -0.17477347 0.14050928 0.14926165 -0.31500545 -0.26311547 0.27238846 0.11175559
-0.2531648 0.34924838

weight f4 [10, 16]
00000000: 284e 5bbd 9636 393e 9c67 443e b047 ddbd
00000010: 86cc 63be dc97 a3bd 69d0 2fbe 0706 473e
00000020: 28f2 0ebe 4aa5 4d3e b8c1 683e 0e70 fabd
00000030: 7a26 1d3d d11d 9b3d b412 323e f24d 6a3e
00000040: 1896 eabd ba22 38be 08e5 fc3d 52cb 28be
00000050: a839 6dbd acc7 27bd 70ff 913e 82a9 2c3d
00000060: 8eba 59be 01ee 4cbd aa14 97bd 63dd 163e
00000070: 75eb adbb dd15 9cbe 4b30 ddbd bb62 f6bc
00000080: fc41 df3d b81d 333d 7c51 8b3d c246 45be
00000090: 0d23 54bd f5b2 4ebe 887a b0bd 14b4 cebd
000000a0: d0e4 5e3d 850b 2ebe d458 413d 85c7 92bd
000000b0: 521c 1ebe 33ee c83b 47a7 10bd f183 e03c
000000c0: 3a03 633e 3806 723e 7eef 343e 5a39 053e
000000d0: 560f 7e3e f94e 60be d7aa 0ebd 13db a83d
000000e0: 3c74 c8bb a19e 343e d720 4fbe 904e 85be
000000f0: 4838 4fbd 1ac5 753e 0490 67be af3e 7e3d
00000100: 7cfb afbd 1ad5 50be 90ed 783d 3842 3d3d
00000110: 7cef 33be 2b58 6a3e 641b 9dbd aedc a83e
00000120: c197 703e e1e2 283d 5aed af3b 4797 3e3e
00000130: a335 283d 5cbf 20be 495d 80bc a93c 823e
00000140: 84d2 7ebe 80ba 503b 0034 31bb 2ad7 6cbe
00000150: 462d e03d e3e3 9d3d d6c0 393e c89f 6bbd
00000160: 0b33 c5bd e2f5 4d3e 5e84 d7bd 250d 35bc
00000170: 9a56 203d a885 1b3e ba97 f13c dd6d d7bc
00000180: eca0 f83d 489c 47be ea51 193e a68f 7fbe
00000190: 923d 513e 15f6 363e dd0a eebc 4bec 9c3d
000001a0: 9736 53bb 0691 2c3e 5c32 3abe 7c6b cc3a
000001b0: 7ec6 a13a 0735 5f3d 7748 f83e 6311 ec3d
000001c0: d08d 223d baa4 383e f80f 09bd f4f6 a9bd
000001d0: 6836 05be cc7e 353d 8bf5 e13d a0c4 5fbe
000001e0: edbc 14bc 7b48 53bd d182 16be f032 2abd
000001f0: ca97 82bc ba7a e0bd d532 6a3e d46f 933e
00000200: 8e31 65be ee83 4f3e 76fb 56be eca7 36be
00000210: e510 8a3d 2005 143e 2039 d1bc fa93 8cbe
00000220: ee41 5abe d3c9 af3d e73e d03d 721c 1c3e
00000230: a709 5bbd 988f 80be 5ef9 7bbe 0a4a b53d
00000240: da5d 57be 5abf 773e 180e e83d a8b1 2f3d
00000250: 9031 65be 236b 783b 578d f3bd 07b8 243e
00000260: 83c6 21bd 5dd0 23be b8b3 833e 4c2f 66be
00000270: bb0f 833b bfae ab3e c0a6 943d 6686 4ebe
-0.053541332 0.18087229 0.19180149 -0.10804689 -0.22245988 -0.07987949 -0.17169346 0.19435893
-0.13959563 0.20082584 0.22730148 -0.12228404 0.038366772 0.075740464 0.17389947 0.22881296
-0.11454409 -0.17981997 0.12348372 -0.1648381 -0.057916313 -0.040961906 0.28515196 0.042153843
-0.21262571 -0.050031666 -0.07376988 0.1473289 -0.0053076097 -0.3048543 -0.10800227 -0.030076375
0.109012574 0.043729514 0.06802651 -0.19265273 -0.05179124 -0.20185454 -0.08617121 -0.10092941
0.05441743 -0.16996582 0.047203854 -0.071669616 -0.15440491 0.006131911 -0.035315778 0.027406665
0.221692 0.23635185 0.17669484 0.13010159 0.24810538 -0.21905126 -0.034830894 0.0824491
-0.006117372 0.17638637 -0.20227371 -0.260365 -0.050590783 0.2400097 -0.22613531 0.0620715
-0.08592889 -0.20393792 0.060773432 0.04620573 -0.17571825 0.22885196 -0.0767124 0.32980865
0.2349539 0.041231994 0.0053688707 0.18612395 0.041066777 -0.15697998 -0.015669482 0.25436905
-0.24884993 0.0031849444 -0.002703905 -0.23128954 0.10946135 0.077094816 0.18139967 -0.057525426
-0.09628876 0.20113328 -0.10523294 -0.011050497 0.03914509 0.15187705 0.029491294 -0.026297504
0.121400684 -0.1949321 0.14972654 -0.24957141 0.20433643 0.1786731 -0.029057914 0.07662257
-0.0032228583 0.16852197 -0.18183273 0.0015595998 0.001234248 0.05449393 0.48492786 0.11526754
0.039686024 0.18031588 -0.033462495 -0.08299056 -0.13009036 0.044310376 0.11033162 -0.2185235
-0.009078247 -0.051582795 -0.1469834 -0.041552484 -0.01594152 -0.10960908 0.22870953 0.28796256
-0.22382185 0.20265171 -0.20994362 -0.17837495 0.067415036 0.1445508 -0.025539935 -0.27456647
-0.21314213 0.08583417 0.10168248 0.15245226 -0.053476002 -0.25109553 -0.24606845 0.088520125
-0.21031895 0.24194089 0.11330813 0.042894036 -0.22382188 0.0037905655 -0.11892193 0.16085826
-0.039495956 -0.15997453 0.25723052 -0.2247898 0.003999678 0.33531758 0.072583675 -0.20168456

bias f4 [10]
00000000: 05ef 95be 8b4c 973d 5683 7dbe 2501 06be
00000010: a7ae a5bd 8b6c 55be d828 d83c f67e 24be
00000020: ef2a 7e3d 894a 873e
-0.2928392 0.07387646 -0.24757132 -0.13086374 -0.08089953 -0.20842187 0.026386663 -0.16064057
0.062052663 0.26424053

weight f4 [10, 16]
00000000: aa0e 69be 523e 04be 302a dabd 3c38 63be
00000010: 3b15 fcbd 1fc8 393e 74e4 153e 9077 5ebe
00000020: f11e 7e3d fc53 60bd fb1b 7abd 35b5 b63c
00000030: c7bb f0be fae2 ddbe d0f6 6d3b 17f7 d6bd
00000040: 4c5e 3abe 44a5 ec3d 68a1 d5bd c03d 5e3c
00000050: 4d22 9abc 3d65 adbd b4f5 2b3e a699 06be
00000060: ab18 9a3e 7f4d e23e 7a44 1dbe 0c5c ce3e
00000070: 823a 5c3e 62a4 323e f6ca a53e f16e 0a3f
00000080: b205 4dbe 4241 11be cc82 cdbd 00aa 653d
00000090: 00be 4dbe 2fe4 9e3d 006c 043d 5125 2dbd
000000a0: 5b24 30be 2b1c a53e 3ccb 1c3e f3ff a23d
000000b0: 8727 683d 8664 943c b067 7f3e 20f3 f23d
000000c0: e058 4dbe 7cac ce3d 98d4 6e3d 8010 0dbe
000000d0: 708e 69be 07dd c23d faf2 843d f3e1 18be
000000e0: f994 3a3e 4d76 1cbe 710c cebd 8ae7 c03d
000000f0: c482 a0bd becf 983e 1451 b7bd ca0b 68be
00000100: 66d4 5abe 529c 5e3e c472 5abe 96c9 553e
00000110: b9ae 4b3e 2384 5c3d bd45 1cbe 5c04 363e
00000120: d302 713d da3a 753c 8257 85bc 4d75 54bc
00000130: a429 bd3e bd09 703e 1c67 083e 5cf5 053a
00000140: 2696 443e caf8 38be 2c0a 3dbe 62f2 753e
00000150: 1bd1 df3d b4e9 6dbe 5b3f 3bbe a984 16be
00000160: 8844 0bbe 2e6b ea3d b0b1 4a3d 37a7 553d
00000170: 8446 46be 32b3 98be 4575 8b3d 9fc9 c13e
00000180: 88f1 673e 5049 133e 9845 1c3d 78be e1bd
00000190: cd88 41bd e1d8 6e3e b580 1fbd 4ca1 9d3e
000001a0: 2df5 863e 530f 0ebe 7055 003e 8c5e 593e
000001b0: 9f29 81bd 23f0 19be d778 e93d bdfb 2c3d
000001c0: 248d 753e aa72 72be a0cd 50bc a0c7 2f3c
000001d0: 9382 5b3a 0a57 bcbd 3fbc 1dbd 49cc 26bd
000001e0: f1a7 1abd 6776 853c edb6 4bbe 79d0 75be
000001f0: 8437 ccbe 6806 98be 063e 273e 9631 a2bd
00000200: d80c 10be 120e 66be 0831 35be 6823 593d
00000210: 0f57 26bc cb31 c53d 1ce5 9e3d 549a 34be
00000220: 79ea 92bd b7c1 14bd 41a1 a5bd 7a20 0d3e
00000230: c2bb 403e 80d9 923d 70e9 433e 8936 87bc
00000240: d065 36bd 782a f7bd 5cf5 873d d644 353e
00000250: 81ea 6d3e 5dd0 2d3d b58b 83bd 1a89 fa3d
00000260: 3e98 29be efde 2fbe 35e7 b2be 6f7e 7abd
00000270: e1b9 b3bc ceca a63d 5870 0abe 6387 093e
-0.227595 -0.12914398 -0.10652578 -0.2218942 -0.12308737 0.18142746 0.14637929 -0.21725297
0.062041227 -0.054767594 -0.06106184 0.022303203 -0.47018263 -0.43337232 0.0036310442 -0.104963474
-0.18200034 0.115549594 -0.104311764 0.013564527 -0.018815184 -0.08466575 0.16792947 -0.1314455
0.30096945 0.4419975 -0.15358153 0.403046 0.21506694 0.1744552 0.3238141 0.54075533
-0.20021704 -0.1418505 -0.10034713 0.056070328 -0.2009201 0.07758366 0.03232956 -0.042271916
-0.17201369 0.32248053 0.15311903 0.07958975 0.05667832 0.01811434 0.24941897 0.11862779
-0.20053434 0.100914925 0.058308214 -0.13775826 -0.22808242 0.09514814 0.064916566 -0.14929943
0.18220891 -0.15279503 -0.10060967 0.094191626 -0.078374416 0.29845995 -0.08951011 -0.22660747
-0.21370086 0.21739319 -0.21332842 0.2087768 0.1989087 0.053836953 -0.15260978 0.177751
0.058840584 0.014967645 -0.016277079 -0.01296742 0.36945832 0.23441215 0.13320583 0.0005110109
0.19197902 -0.18063655 -0.18460912 0.24018243 0.109285556 -0.23233682 -0.18285887 -0.14699043
-0.13600361 0.11446224 0.049485862 0.05216142 -0.19362837 -0.29824215 0.06809477 0.37849137
0.2265073 0.14383435 0.038152307 -0.11022657 -0.047249604 0.2332492 -0.038941104 0.30787122
0.2635893 -0.13873033 0.12532592 0.21227473 -0.06306767 -0.15033011 0.114000015 0.042232264
0.23979622 -0.23676553 -0.012744337 0.010728747 0.0008373644 -0.09196289 -0.038509604 -0.040722165
-0.037757818 0.01629181 -0.19894 -0.24005307 -0.39886105 -0.29692388 0.16332254 -0.07919614
-0.140674 -0.22466305 -0.17694485 0.05301228 -0.010152592 0.09628638 0.07758543 -0.17636997
-0.07173628 -0.036317553 -0.08087397 0.1378192 0.18821624 0.07170391 0.19132018 -0.016505497
-0.04453069 -0.12068647 0.066385955 0.1770204 0.23233987 0.04243504 -0.064231314 0.12233181
-0.16561982 -0.17174886 -0.34942022 -0.061155733 -0.02193922 0.08144151 -0.13519418 0.13430552

bias f4 [10]
00000000: 02e9 b1bd 134d cf3d dfca d8bd f878 703c
00000010: a3fa e9bd 4a3e 13be fa34 35be 27b8 963e
00000020: 13af b4bd e71a 993e
-0.08687021 0.101221226 -0.105855696 0.014677279 -0.11424758 -0.1437923 -0.1769599 0.29437372
-0.08822455 0.29903337

weight f4 [10, 16]
00000000: 1278 d33d 9c4d cf3c 6822 5d3e f8ef 113e
00000010: 07e8 283c 5fe0 27be 161c 3cbc 3067 983c
00000020: 59d6 843d 38ae 64bb 2aad 35bd d880 a23d
00000030: c13c 563e d56e ab3d 816b 3a3d e33b e23d
00000040: d966 0fbe 643b aabe acc8 893c d3df c0bd
00000050: 1abb 90bc a9a2 c93d 2df3 6abd 77b2 ab3c
00000060: 3b62 573d 3215 423d 0e64 a9be ce42 4cbe
00000070: 7a0d f3bd 9d61 3abe eebd 293d 9aab 71bb
00000080: 2478 06be 914e 1ebe b87c 6d3e 6fa4 0bbe
00000090: 2d53 32be 9b39 1d3d 876a 97bd 8b94 85be
000000a0: adca 313e 4c32 d4bd 8cf5 1abe 1e37 01be
000000b0: f4d4 8ebd c6df 883d f8e8 c8be 6d87 4fbe
000000c0: eb3b 193c 9fe1 d33d 2550 e13d c217 533e
000000d0: 7992 6fbe 8736 2cbe 9b2a 573e 44e5 11be
000000e0: 3092 6dbe c9fd cabe f50e 393d 8618 11bf
000000f0: 8a9d c8bd 37d1 a3bc 29e9 d6be 90b3 13be
00000100: 9887 00be 399c 0e3e 12c2 413e 9d7f 26be
00000110: 430b 1b3d 3c19 123e 6169 0ebe 2ee0 13bb
00000120: ac8d 9dbe def6 2cbe 3922 9abe 09d3 1dbe
00000130: 8983 123e 46d0 ab3c e083 313e 9872 143e
00000140: 7d48 f9bd 15da 963e ccba 11bd 290c b2bc
00000150: 8d04 ab3e b758 3b3e c0fb ccbd 3ee9 85be
00000160: 32a1 503e ffae c83e e5ef 873d 8709 6d3e
00000170: fb8c e2bd 22ee 5e3d b7d4 653e 4ce9 0bbc
00000180: c6b0 87bd decc 143c 3efe 5b3e a049 2e3d
00000190: 26b6 f83c f608 e23c c1e7 5cbe a737 c4bd
000001a0: 02bf b13e f3b9 aabc 2d27 223e 5e04 893d
000001b0: 5d73 2a3e 7b04 d53d 5d92 6d3d 6d46 643e
000001c0: a917 c1bc 24cf 163e b42e 14be 6430 08be
000001d0: 22e7 13be 3659 82be 1069 85be a262 bc3e
000001e0: 0811 603d 3239 113d d666 77be 28b5 0fbe
000001f0: 2379 81be a2ce 15bd 1755 c3bc 6fb3 36be
00000200: 5314 313e 869f 0dbe e16b a9bd d79f 89be
00000210: 3fa5 c6bd 4a9e 4d3e 83b0 803e 483f 343e
00000220: 658c 3eba 0878 a5bd 0e57 6b3c cd46 413d
00000230: bdd2 b1be f90f 183d 8527 843d 485e 813d
00000240: 169e ff3c 7885 04be e053 7e3e 394c febd
00000250: 3705 a6bd f5e8 7e3e e79a 8fbd b551 913d
00000260: f1cf f63e ceee af3d f7c7 923e 69e7 13be
00000270: 8ad4 af3e ee82 713e f3fb 593e e217 823e
0.10325636 0.025305562 0.21595156 0.14251697 0.010309226 -0.16394185 -0.011481306 0.018603891
0.06486196 -0.0034893882 -0.044354595 0.07934731 0.20921613 0.08370749 0.04551268 0.11046579
-0.14004077 -0.33248436 0.01681932 -0.09417691 -0.017667342 0.09845478 -0.057360817 0.020959122
0.052583914 0.047383495 -0.33084148 -0.19947359 -0.11867805 -0.18201299 0.041440897 -0.0036875964
-0.13131768 -0.15459658 0.23192108 -0.13636945 -0.17414542 0.038385015 -0.07393365 -0.26089892
0.17362471 -0.10361156 -0.15132731 -0.12618682 -0.06974211 0.066833064 -0.3924024 -0.20266505
0.009352664 0.10345768 0.110016145 0.20614532 -0.23395719 -0.16817676 0.21012346 -0.14247614
-0.23200297 -0.39646748 0.04518028 -0.56678045 -0.09795673 -0.019997222 -0.41974762 -0.14423966
-0.12551725 0.13926782 0.18921688 -0.16259618 0.037852537 0.14267439 -0.13907386 -0.0022564041
-0.3077215 -0.16891047 -0.30104235 -0.15412535 0.14307989 0.020973336 0.17335463 0.14496839
-0.12172029 0.29463258 -0.035578534 -0.021734314 0.3340191 0.18295561 -0.10008955 -0.26154512
0.20373991 0.3919601 0.06637553 0.23148166 -0.11062046 0.05442632 0.22444426 -0.008539509
-0.06625514 0.009082047 0.21483704 0.042550683 0.030360293 0.027592164 -0.21572782 -0.09580927
0.3471604 -0.02084062 0.15835257 0.06690286 0.1664557 0.10401245 0.05800091 0.2229249
-0.023570852 0.14727455 -0.14470941 -0.1329971 -0.14443639 -0.25458688 -0.2605672 0.36794
0.054703742 0.035454936 -0.24160323 -0.1403395 -0.25287732 -0.036574014 -0.023844285 -0.17841886
0.1729291 -0.13830385 -0.082725294 -0.2687976 -0.09699487 0.20079914 0.25134668 0.17602265
-0.0007268845 -0.08079535 0.014364017 0.04718666 -0.34731093 0.037124608 0.0645285 0.06316811
0.031203311 -0.1294154 0.24836683 -0.12416882 -0.081064634 0.24893554 -0.07011967 0.070956625
0.48205522 0.0859047 0.28668186 -0.14443745 0.34341842 0.23585102 0.21287517 0.25408846

bias f4 [10]
00000000: fecc 08be 48ab 9b3d 4786 86be 5fca 46be
00000010: e293 7c3e 375d 86bd 519e d7bd ce08 1c3d
00000020: 5d9b 1a3c 2778 323e
-0.13359448 0.07601029 -0.2627432 -0.19413136 0.24665788 -0.06560748 -0.10528243 0.038094334
0.009436456 0.17428647

weight f4 [10, 16]
00000000: 281b 883d fc02 b53d c861 febd 107e 523e
00000010: ecb4 87be 8b13 a23d 4bcd eebd c208 12be
00000020: 2b11 9f3d c6d1 df3c 6818 083e aa76 06be
00000030: 9566 433e 6f0f 273e 2528 733e cde1 803e
00000040: 80c1 d33c 5cde 5bbe 902b 6dbe fc07 12be
00000050: d9fa 83be fd4f fcbb 0ebe 033e 3582 f33d
00000060: 9b3f 1b3e bf95 033e 81e0 913d 1499 ebbb
00000070: db73 bdbc 086a 183d 0534 1fbd 4612 a13d
00000080: 3838 0cbe 7c61 353e ba3c 56be 068a 26be
00000090: b7df a0be db11 b13d 2d94 303e f67d a23d
000000a0: 71ad b4be e299 d33d ff06 8b3c 2714 c7bd
000000b0: 478f 64bd 7c48 2a3c 89ed 1abe 4566 5bbe
000000c0: c866 8cbd 6e60 2b3e 4091 fa3b b0bb 9c3c
000000d0: ab4e 39bd 9880 443e 7963 71bd 4d37 a23e
000000e0: b058 093e 24b4 7e3b e77c 973d 4188 fd3d
000000f0: 125f d0bd 4118 81bd d6d9 da3d c61f 86be
00000100: 789e 473e 780f 1f3d ae7e 56be c486 aabd
00000110: 2a25 613e 5c39 803e 8b1f 8a3d cb85 babd
00000120: 1ce5 0f3e 479b d93e eacc a83e 804b a33e
00000130: 8947 fabd 6e4e 9a3e 2959 13bc f7a9 543e
00000140: 9445 fb3d d03d dc3d eafb 5fbe d697 20be
00000150: 21fe b1be f589 e23d 68ff 90be 34d3 00be
00000160: 9f91 8c3c 295e cbbe 137f 7ebe 0f37 40be
00000170: 28d7 63be 990c 3cbe 7a85 1fbe 0df9 b5be
00000180: 90e9 eb3c 283c 8fbd 7608 043e 34dd 573e
00000190: 8723 5a3e 4727 843d 20dd 473d 52f2 cfbd
000001a0: 7b5d c9bd 91a3 f8bd ee05 d73d a328 9dbe
000001b0: eb72 5d3e 6c90 debc 72d0 d73c 93bf b03b
000001c0: 703b 38bd 6cd4 c4bd 04f8 e1bd 4032 d9bc
000001d0: 552e 2bbd a3f1 5abd 1560 47be 6e4c 9d3d
000001e0: 887e 20bc 01ee 2ebe ffe9 0a3e af75 dfbd
000001f0: 5d08 38be 3d41 d53d da22 53bd 015a 81be
00000200: 20b0 0abc 6a13 423e b4f7 76be 7468 9a3d
00000210: 2bd0 e6bd 71c5 1e3e 773b 6dbc f459 293e
00000220: 196a 853d 369e 80be 35a4 36be 3db8 45bd
00000230: 8a32 ab3d 6fb2 cd3d cc49 373e b473 11be
00000240: eefd 293e b470 8e3d 18b3 0d3e 203d 3e3c
00000250: c15b f53c edec 7e3e b593 163e 61e1 25be
00000260: ca9d 69bd 36bb 2f3d 709b acbd 6143 b4bd
00000270: 4bfb 653e 64c7 2d3e 6405 253d 6139 583e
0.06645805 0.0883846 -0.12420994 0.20555902 -0.2650522 0.07913884 -0.1166025 -0.14261153
0.077669464 0.027321707 0.1329056 -0.13131204 0.190821 0.16314481 0.23745783 0.25172272
0.025849104 -0.21471542 -0.23161149 -0.14260858 -0.2577732 -0.007699965 0.12865469 0.118900694
0.15160982 0.12850092 0.07122899 -0.007189879 -0.023126533 0.037210494 -0.03886797 0.078648135
-0.13693321 0.17712969 -0.20921603 -0.1626359 -0.3142068 0.08645984 0.17244025 0.079341814
-0.35288575 0.10332085 0.01697111 -0.09720641 -0.055800702 0.010393258 -0.15129675 -0.21425731
-0.068555415 0.16736004 0.0076467097 0.019132465 -0.04524104 0.1918968 -0.058932755 0.31682816
0.13412738 0.0038864696 0.0739687 0.12379504 -0.10174383 -0.06303454 0.1068608 -0.26196116
0.19494045 0.03883311 -0.20946762 -0.08326486 0.21986833 0.25043762 0.067442976 -0.0910755
0.14052242 0.4250128 0.32968837 0.3189354 -0.122206755 0.30137962 -0.008993425 0.20767961
0.1226913 0.10753977 -0.21873441 -0.15682921 -0.34764197 0.110614695 -0.2831986 -0.12580568
0.017159281 -0.39720276 -0.24853162 -0.18771003 -0.22250044 -0.1836418 -0.15578261 -0.35541573
0.028797895 -0.06993896 0.12893853 0.21080476 0.21302615 0.06452804 0.048794866 -0.10153641
-0.09832283 -0.12140573 0.10499178 -0.30695066 0.21625869 -0.027168475 0.026344512 0.005393931
-0.04497856 -0.09610829 -0.11033633 -0.026513219 -0.041792233 -0.0534531 -0.19470246 0.076805934
-0.009795792 -0.17082979 0.13565825 -0.10911118 -0.1797194 0.10412834 -0.05154691 -0.2526398
-0.008464843 0.18952718 -0.24117929 0.07539454 -0.11270174 0.15505005 -0.01447951 0.1653822
0.06514377 -0.25120705 -0.17836078 -0.048271406 0.08359249 0.10043799 0.17899245 -0.14204293
0.16600773 0.0695509 0.1383785 0.011611253 0.029950978 0.24895068 0.14704783 -0.16199256
-0.057035245 0.042903148 -0.08428085 -0.08801914 0.22459142 0.16970593 0.040288344 0.21115638

bias f4 [10]
00000000: e907 d4bd e0e7 17be 867f 9d3d fcdf d33d
00000010: 32ed 683e 0b92 153e 105a 343e bc55 f03d
00000020: 2ab5 533e 7c36 303e
-0.10353071 -0.14834547 0.07690339 0.10345456 0.22746733 0.14606492 0.17612481 0.117351025
0.20674577 0.17208284

weight f4 [10, 16]
00000000: 70c5 523d 1efb 243e 04b8 42be 5473 da3d
00000010: 1ddc b83c 6c40 fcbc a55b 063e dc12 023e
00000020: 3746 313e 2395 ce3e e634 a93d 5681 9cbc
00000030: 8503 b23c b309 9a3c 1ea9 533d 4f98 c53d
00000040: 00b5 c7bc 7c4c c0bd a834 a2bd 5e2a 28be
00000050: cdb7 25be 88e1 b4be 3c60 183d a050 85be
00000060: ee3b ae3d 6986 ffbd f197 bfbd 5302 9bbe
00000070: 091c 20be ce78 febc d439 b03d 7ef3 cfbe
00000080: de66 04be 407a 7b3c dc68 613e 203a d73c
00000090: 32b2 9fbe 9fc1 2bbe 756d 8c3d b908 94be
000000a0: a0a1 edbd 81db 0bbe f83a bdbd 828a 123e
000000b0: 740c 93be c34e abbe d063 75bd 5f96 a53c
000000c0: d479 0d3e 9476 f43d 5c15 f9bd 00ed afba
000000d0: a479 82be 1b7a 54bd 2866 553e c863 b63d
000000e0: 4409 7dbe df62 1cbe 8031 ffbd a08f f1bd
000000f0: c93d 9ebd 7bed 16bc 470c 36bd ab8a 67be
00000100: 20c1 2fbe f007 4cbe cc78 8f3d 3034 793d
00000110: 73ec 47be 0a3a dd3d 9a38 4ebe c582 743d
00000120: 082e 3abe 9e3a 42be eb90 053d 8efa f43d
00000130: cfd2 40be 440e 2dbe fa24 0d3d 45b8 9c3b
00000140: c0ad d23c 162d 11be 4a72 533e 2076 8abc
00000150: df6e dcbc 097b 01bd 5427 843d 89f7 1bbd
00000160: 310e 713e bf75 893e e1b6 90bd 6cab 91bd
00000170: 24fc 5f3e 79c8 793e a64f 213c a861 a53e
00000180: f883 6bbd ce8c 7ebe 60ad 60be ec72 273e
00000190: 5926 893d 9a16 a3bd 85fa 3abd fff7 dd3d
000001a0: 048e 1d3d 84ca 363d d400 efbd ee28 fdbd
000001b0: efa9 793e 0b88 a83d a93a b73d 45a4 49be
000001c0: 7a5c 59be 907c 0d3e 0c97 bb3d 9aa9 473e
000001d0: 9918 433e ad44 55be 04bf 403e 4b08 be3d
000001e0: b029 8a3c f64f 8b3d e225 6e3e 42dc 673e
000001f0: 6ed3 6dbe 4eb2 663d 6dbe d43b ef22 b43e
00000200: 486a 6b3e d21a 56be 6025 473e 88e9 babd
00000210: b215 1dbd d559 9fbc abad e43b 8783 8cbd
00000220: 52c1 4b3d 0bdc 373e 8fe0 733e 580b cd3d
00000230: dc12 e0bd 5a6b b43e d8df 0fbe d08b ad3d
00000240: f03e 143d 34a5 8fbd ae3f 3a3e 003b e2bb
00000250: ce90 763e f5ec 863e acf0 66be c41c 78bc
00000260: 1fbf 773c bafb 523d 24b9 ea3d 96b0 4abe
00000270: 681d 43be 9f64 abbd 7f91 053c aad8 c7be
0.051457822 0.16111419 -0.19015509 0.10666528 0.022565896 -0.030792437 0.13120897 0.12702507
0.17311941 0.40348157 0.08262043 -0.01910464 0.021730194 0.018803453 0.051674955 0.09648191
-0.0243783 -0.09389588 -0.079202 -0.16422412 -0.16183396 -0.35328317 0.03720115 -0.26038074
0.085075244 -0.124768086 -0.093551524 -0.3027521 -0.15635695 -0.031063464 0.0860478 -0.40615457
-0.12929866 0.015348971 0.22012657 0.026272833 -0.3119064 -0.1677308 0.06856815 -0.28912905
-0.11603093 -0.13657953 -0.09239763 0.14310649 -0.28720438 -0.33458528 -0.05990964 0.020213304
0.13816005 0.119366795 -0.12162277 -0.0013422072 -0.2548343 -0.05187426 0.20839751 0.089057505
-0.24710566 -0.15272091 -0.12460613 -0.117949724 -0.07726628 -0.009211893 -0.044445302 -0.22611491
-0.17163515 -0.19924903 0.07005462 0.060840786 -0.19523792 0.10802086 -0.2013878 0.059695024
-0.18181622 -0.18967673 0.032608908 0.11961852 -0.18830417 -0.16899973 0.03445909 0.004782709
0.025717616 -0.14177355 0.20649067 -0.01690203 -0.026908336 -0.031611476 0.06452814 -0.038077865
0.2354057 0.26847646 -0.070661314 -0.07112774 0.21873528 0.2439288 0.00984565 0.32301068
-0.057498902 -0.248584 -0.21941137 0.16352433 0.06696767 -0.07963295 -0.04564907 0.10838317
0.038465515 0.044626728 -0.1167008 -0.12361322 0.24381231 0.08229073 0.089467354 -0.1969157
-0.21226683 0.13817048 0.09159669 0.19498292 0.19052352 -0.20826979 0.18822867 0.092789255
0.016865581 0.06802361 0.23256639 0.22642615 -0.23225185 0.05632239 0.006492427 0.35182902
0.22989762 -0.20908669 0.19447851 -0.09126574 -0.03835077 -0.019452015 0.0069787106 -0.06861024
0.04974491 0.17955033 0.23816131 0.10011929 -0.10941097 0.35238153 -0.14050233 0.08473933
0.036192834 -0.07013932 0.18188354 -0.006904006 0.24078676 0.2635266 -0.22552747 -0.015143577
0.01512125 0.051509596 0.11461094 -0.19793925 -0.19054186 -0.08368801 0.008152365 -0.3903249

bias f4 [10]
00000000: d6ef 60bd d884 523e 47fc 51be 23ba 883e
00000010: 3ee7 2dbd 64db 683e 4d4d 6b3e 0788 4e3e
00000020: 93f8 18be c780 46be
-0.054916225 0.20558488 -0.20506392 0.2670451 -0.042456858 0.22739941 0.22978707 0.20169078
-0.14938574 -0.19385062

weight f4 [10, 16]
00000000: 803b 3cbb b86e a73d 8414 c43d 80fa 013e
00000010: d411 1bbe 288d 793e 1063 19be 4273 0fbe
00000020: 19ce ea3d ed52 9e3e 1c6d f8bd 68a7 a3bd
00000030: da8f f1bd 7885 5dbe db78 703d 42fd 1a3e
00000040: 7a86 2b3e f498 013e 8ccb 713e d0b2 5cbe
00000050: cacf 04be be6f 41be 0019 663c 1869 69be
00000060: 1105 2b3d 67fd dc3b cc1d 823d 283e 533d
00000070: c278 623b 8ca5 f4ba 421f 8e3d a83b 57be
00000080: 18c2 4e3d 5cd8 79be c06c e73c a458 04be
00000090: 1c44 d5bd 4813 573e 4005 a5bd 4089 4b3e
000000a0: b9b1 07be 00ae 62be 74c6 a53d 5a58 6b3e
000000b0: 49a6 86bb cc3a db3b 9275 0cbe f41e 09be
000000c0: d0b5 1fbd 76f9 4c3e 2018 58bd 66e4 083e
000000d0: fc77 4fbe c0e3 1bbe 5ca4 e1bd 4a9a 69be
000000e0: 3fce d23b 10aa 7bbe d03d 883d f030 e0bc
000000f0: bb43 0f3d 5d63 803e db13 71bc 0a99 61be
00000100: 7831 fdbd 44ca e03d 7030 adbd d87b 02be
00000110: 4496 f93d e0ad edbc 4eab 093e d400 4abe
00000120: feba 68bd 9c32 173e 8265 7f3e a085 e03d
00000130: 7157 473d e283 c3bb 18e9 8abd 80d2 4b3e
00000140: 1465 013e 7e90 23be 786c 083e b091 543e
00000150: 000f 8a3c a48f abbd 12c7 2a3e a49f 673e
00000160: c7bb e6bb e6ba e73a d093 13bd 0054 d53b
00000170: 76fa c33d 2c11 743e b834 8e3e 70c5 97bd
00000180: a6fb 223e 10a5 103e fcfd c03d 56b8 63be
00000190: 1208 603e f4de e53d 22b4 33be 4c78 05be
000001a0: b8b9 85bd d2d2 4dbe ae26 6dbe 009c c5bb
000001b0: 9dbb 273c 87e5 98bd ad66 92bd 805f a0bc
000001c0: 2cc5 ca3d 1c0b ea3d 808e ab3d d6ad 69be
000001d0: 9038 d53d 0895 3a3e 084f 74be 5c12 073e
000001e0: 2311 2a3e 05d9 93be e2a1 7fbe 1034 1ebe
000001f0: a00c f13d d54d 15be 9c56 103e 0252 5abe
00000200: ccb1 14be eabc 2abe 1051 a0bd be0f 103e
00000210: 68e9 433d e01a 3a3e b8cf 0c3d 18bc 083d
00000220: ee4b 113e 7131 583e acb1 6b3e 602b 13bc
00000230: 1518 36be 87f0 26be 3ce8 76be 3ab6 633e
00000240: 94b8 9fbd 7866 1dbd f20d 28be 0097 bb3d
00000250: 14fa 4dbe c80c 053d 1cb5 88bd 648d 033e
00000260: 32e2 8cbe a643 1a3e 681e 9e3d 5889 3bbe
00000270: 0292 bdbe 738a d2bd 5fd7 8bbe c093 bcbd
-0.0028721988 0.08175415 0.095742255 0.12693214 -0.1514352 0.24370253 -0.14979196 -0.14008811
0.11465091 0.30922642 -0.12130186 -0.079909146 -0.11795016 -0.21632946 0.058709007 0.15135673
0.16750517 0.12656003 0.23612803 -0.21552587 -0.1296989 -0.18890283 0.014044046 -0.22793996
0.04175288 0.006744075 0.063533396 0.05157295 0.003455684 -0.001866506 0.06939556 -0.21018851
0.05047807 -0.24398941 0.028250098 -0.12924439 -0.104133815 0.21003449 -0.08057642 0.19876575
-0.1325139 -0.22136688 0.080944926 0.22982922 -0.004109178 0.0066903587 -0.13716725 -0.13390714
-0.03899175 0.20017037 -0.052757382 0.13368377 -0.20260614 -0.15223598 -0.11017677 -0.22812763
0.006433278 -0.24576592 0.06652415 -0.027367085 0.034976702 0.25075808 -0.014714207 -0.22031036
-0.12362951 0.10976079 -0.08456504 -0.12742555 0.12186864 -0.029013574 0.13444254 -0.19726878
-0.056818955 0.147654 0.24941066 0.10962987 0.048667375 -0.0059666494 -0.0678274 0.19904518
0.12636214 -0.15973088 0.13322628 0.207587 0.016852856 -0.08377007 0.16677502 0.22619492
-0.007041428 0.0017679601 -0.036029637 0.0065102577 0.09569256 0.23834676 0.27774596 -0.07410705
0.15916309 0.14125466 0.09423444 -0.22238287 0.21878079 0.112241656 -0.17549184 -0.13034171
-0.06529564 -0.20099953 -0.23159286 -0.0060305595 0.010237602 -0.07465654 -0.0714849 -0.019576788
0.09900889 0.114279 0.08376789 -0.2282022 0.10411179 0.18220913 -0.23858273 0.13190597
0.166081 -0.2887651 -0.24964097 -0.15449548 0.11769986 -0.14580472 0.14095539 -0.21320346
-0.14520949 -0.16673627 -0.078279614 0.14068505 0.047830015 0.18174314 0.034377784 0.033382505
0.14189121 0.2111261 0.23016995 -0.008982509 -0.17782624 -0.16302691 -0.24112028 0.22237483
-0.07798877 -0.0384278 -0.1641157 0.0915966 -0.20114928 0.032482892 -0.06675169 0.12846905
-0.27516323 0.15064868 0.07720643 -0.18314111 -0.37025458 -0.10280313 -0.27312753 -0.092078686

bias f4 [10]
00000000: 55ac 613d f51d 733d 7632 87be 2453 6f3e
00000010: 739d 473e d518 99be fa89 9e3d 1772 6b3e
00000020: e118 233e 4361 31be
0.05509599 0.05935474 -0.26405686 0.2337156 0.19493656 -0.29901758 0.07741161 0.2299274
0.1592746 -0.17322259

weight f4 [10, 16]
00000000: d895 d7bd 32da 33be 3071 18be 7186 993d
00000010: e4c7 d33d 6c2d 483e 9d9c 7ebe 4da7 25bd
00000020: ec79 813d c3e9 1fbe 6ee0 7fbe 1a45 5ebc
00000030: 6607 043d 196a 663d 6c45 8dbd 38bf 6dbe
00000040: 007f fa3a 9129 92bb bf2d 5bbe e055 8dbd
00000050: 5c39 bdbd 5ad1 3cbe ea3c 633e 0b90 463d
00000060: dc3c be3d 6123 8aba 6cf8 00be eda1 e63d
00000070: cd95 3dbe 26bc efbd e8b9 cd3d 003e 7d3d
00000080: 7690 69be de4f 26be 9303 d33d cb2d 52be
00000090: 20f4 e6bd 6010 663d a2b2 82be 33cc 52be
000000a0: 5cf3 663e f849 06be f0bf a4bd a55b 3dbe
000000b0: bc8d 233e 8c2d 2cbd 95d4 c43c f8cd 943e
000000c0: 6e3f 653e d70f 1a3d 7cbe 0d3e d3f8 2ebd
000000d0: 60af dbbc b255 50be d000 373e f198 4a3e
000000e0: a050 2bbd 5e6f 793e 5331 efbc 10c8 ebbb
000000f0: 64e4 ccbd 83a2 283e af08 c23d b8ad 84be
00000100: 9849 81bd 249f c13d 4a50 00bd d434 893e
00000110: cc51 58be 30e7 cfbc d8b5 d23d 3f2c b43e
00000120: 0480 743e 5d30 a03e f065 2cbe 1c12 fb3e
00000130: b6b7 5f3d 8502 143e 6d3c a5bd 7806 c13e
00000140: 383a 5abe b7af f13d f663 29b5 b1ae e63d
00000150: f8b0 40bd e876 42be 2eee 573d 4dc8 8bbd
00000160: ccb0 a3bd 6b55 13be 17f8 293e a722 e93c
00000170: 3c6e 4ebe 02cd 893c 9c83 8bbd 4d00 6bbd
00000180: 2045 353c 4d26 d4bd c138 513e 71af 5dbe
00000190: b083 3d3e 1eb5 2e3e 74f9 34be 38dc 77bc
000001a0: 46de 343e 184d 17be fd92 9d3c 1ece bbbe
000001b0: 4020 5bbe 4500 dc3c 79a5 893d d913 c8be
000001c0: 223c 26be 1e12 253d 9fa1 cd3d b841 f0bc
000001d0: d00e 623e 362b 7cbe 78e9 3c3e f787 4abe
000001e0: 26c2 6cbe 6030 bdb9 5e70 433e 0006 68bd
000001f0: 4b9a 0b3e c16d 6fbd 0055 913e a794 163e
00000200: 446f c5bd e136 933e 5572 15be e156 123e
00000210: 7816 40bd 8688 18be 8916 b53d 1254 82be
00000220: 7482 1dbe 6c71 873e 6d0c 53be 0ff3 93be
00000230: f340 583e fb89 ba3e df69 e73d c3f2 39be
00000240: c853 46be c2bd b0bd 597b d4bd 51c1 bfbd
00000250: 76b4 043e 1018 713e 5a14 dabc e042 12be
00000260: dc91 af3d e06b 26be 61c2 61be 7d56 b93d
00000270: 2881 223e 9725 8fbe 6c37 15be 2b5c 08be
-0.10526627 -0.17563704 -0.14886928 0.07496346 0.103408605 0.19548577 -0.2486443 -0.040442754
0.06322083 -0.15616517 -0.24987957 -0.01356628 0.03223362 0.056253526 -0.06898007 -0.23217475
0.0019111335 -0.0044605215 -0.2140417 -0.06901145 -0.09239456 -0.18439236 0.22191206 0.048477214
0.09288952 -0.0010539108 -0.12594765 0.11261354 -0.18514176 -0.11705808 0.100452244 0.061826706
-0.22809014 -0.16241404 0.10303416 -0.20525281 -0.11277032 0.05616796 -0.2552691 -0.20585708
0.22553772 -0.13114154 -0.08044422 -0.18491991 0.15972036 -0.042035624 0.024027148 0.29063392
0.22387478 0.037612762 0.13842195 -0.042717766 -0.026817024 -0.2034519 0.17871404 0.19784905
-0.041824937 0.2435889 -0.029198324 -0.00719548 -0.100044996 0.16468243 0.094743125 -0.25913787
-0.06312865 0.09454182 -0.03132657 0.26798117 -0.21124953 -0.025378793 0.1028859 0.35190007
0.23876959 0.31286898 -0.16835761 0.49037254 0.05461856 0.14454086 -0.08068166 0.37700248
-0.21311271 0.11801093 -6.310287e-07 0.112637885 -0.04704377 -0.18990672 0.05271738 -0.06825314
-0.07992706 -0.14388053 0.16598545 0.028458906 -0.20159239 0.016821388 -0.06812212 -0.057373334
0.011063844 -0.10358868 0.20431806 -0.21648957 0.18507266 0.17061278 -0.17673284 -0.015128188
0.17662916 -0.14775503 0.019235129 -0.36680692 -0.21399021 0.026855597 0.067210145 -0.39077643
-0.16233876 0.04030048 0.100405924 -0.029328212 0.22075963 -0.24625859 0.18448436 -0.19778429
-0.23120937 -0.0003608493 0.19085833 -0.056646347 0.13633077 -0.05845428 0.28385162 0.14705144
-0.09640363 0.28752807 -0.14594395 0.14290954 -0.046896428 -0.1489583 0.08842189 -0.25454766
-0.15381795 0.26453722 -0.20610209 -0.28896376 0.21118526 0.36433396 0.1129949 -0.18159012
-0.19367898 -0.086299434 -0.10375089 -0.09363044 0.12959465 0.23544335 -0.026621033 -0.14283323
0.08572742 -0.16252089 -0.22046806 0.090496995 0.15869582 -0.27958366 -0.14571923 -0.1331641

bias f4 [10]
00000000: 1182 453e dbb5 90be dbd7 db3d cf0f 9fbd
00000010: 99ad 0bbe ab55 a93d 48f4 bd3d 8eb7 a6bd
00000020: 0e8c c53d c846 c63d
0.19287898 -0.28263745 0.107345305 -0.07766687 -0.13640441 0.08268293 0.092751086 -0.08140479
0.09645854 0.09681469

weight f4 [10, 16]
00000000: d701 1dbe 88bc 8d3d d022 f1bd 8f88 e53d
00000010: c594 333e 2bb9 d5bd f1f3 373e d2f0 5bbe
00000020: 5bed 62be ddaf 05be d829 163c bf44 6abd
00000030: 1333 943d 1e61 b8bd f096 bbbe 107c 913d
00000040: a3fd 1d3e 7914 15be 66e8 fb3d a4d5 783e
00000050: 22f2 bbbc a3c1 883d 6971 f8bd 4e89 a9bc
00000060: 8e99 9c3e 5f17 6cbd cb77 19be b25c 43be
00000070: 2531 8d3d f294 99be 2248 103e 69ac 893d
00000080: 92b4 d43b 7711 9abe 0f4a 453d 23f5 1f3d
00000090: c95a 123e 04ea f0bd 6712 233e 81f9 91be
000000a0: 0479 293e 6125 82bd 9ff3 033c a801 abbc
000000b0: ec14 623e e6f6 1bbe 59dc 93ba 14a4 0e3e
000000c0: a674 d6bd 40f1 4a3d 9573 c63d 19fd 443e
000000d0: e0f4 d4bd 5f10 10be 7f44 a53e b968 cb3c
000000e0: 3513 f83d 8628 133e 6ab1 303d f4e3 f03c
000000f0: b11e 453e 9847 b93c 7086 f23c f58c 203e
00000100: 9b68 dc3d 0656 c73d 6e07 22be c8a5 59be
00000110: 1e72 4abe 2a46 5e3b fd28 403c 2e28 10be
00000120: 106e 06be 4b49 0c3d 4b4e 883d e70f 0d3d
00000130: ac3d 52bd dd28 733d 3874 19be 8f13 35bd
00000140: a4ff 763d 147f 163e 5a8a 7dbd 650d 16be
00000150: dbc3 3a3d 9287 64bd b925 1dbe 35d8 96bc
00000160: 1363 15be 8da9 4fbe 3e94 0e3e 95d6 dcbd
00000170: 7af3 093e e036 abbc 3cc5 3dbd 9526 583e
00000180: 237d 1bbd 56b6 273e ab72 4abd 8987 2cbe
00000190: 9e15 86be 4c71 853d b870 263e 3e5c 9dbd
000001a0: 9588 1d3e 43bb 57bd 1ce7 c5bd 6e3e de3c
000001b0: cb9a 443e 4ab5 973c fce6 883e 9eeb ef3d
000001c0: 735f 1d3e f785 85be 57e2 253d 93a2 ebba
000001d0: 49a4 19be a76c 1e3e 497b 603d ffbb 18be
000001e0: dff7 35be 5b28 fa3d fab4 c6bd 1cdb 9cbd
000001f0: 7fae 24be 95c8 ecbd e172 80bd 7aa1 05bf
00000200: a356 9abe 4733 6e3e 7f14 5cbe fbf8 61be
00000210: 09c2 7bbe e576 283e f595 823e 6e44 b93c
00000220: de89 8fbc a4f5 1e3e 0739 453c 14e3 173e
00000230: f155 4c3e d0d5 f1bc bc2f 383a dc0b cebd
00000240: 9951 c43d 6884 aabd 8b09 c0bd 7079 8cbe
00000250: d2a4 5ebe c3fc 3abb e845 593e af4d 5dbe
00000260: beb0 6a3d bd46 36bd 1b14 ed3b 93bd f9bd
00000270: 591f 2cbe 133a ecbd 6abe 2c3e 57b8 6bbd
-0.15332733 0.06920725 -0.11774218 0.11207687 0.1753722 -0.104357086 0.1796415 -0.21478584
-0.22160856 -0.13055368 0.00916525 -0.057194468 0.07236304 -0.09002899 -0.36638594 0.07103741
0.15428786 -0.14558591 0.12300186 0.24300247 -0.022942606 0.06677558 -0.12131006 -0.020695355
0.30585903 -0.057639476 -0.14987104 -0.19078329 0.06894139 -0.2999645 0.14090016 0.06722338
0.006491252 -0.3009145 0.04816633 0.03905214 0.14292444 -0.11763385 0.15924989 -0.2851067
0.1655007 -0.06354786 0.008053689 -0.020874813 0.22078294 -0.15230903 -0.0011280879 0.13929778
-0.10471468 0.04954648 0.09690014 0.19237174 -0.10398269 -0.14068745 0.3227882 0.02483021
0.121130385 0.14370927 0.043137945 0.029405572 0.19249989 0.022617146 0.02960512 0.15678771
0.107621394 0.097332045 -0.15823147 -0.21254647 -0.19770095 0.0033916333 0.011728522 -0.14077827
-0.13127923 0.034249585 0.06655558 0.034438994 -0.051328346 0.059365142 -0.1498574 -0.044208106
0.06030239 0.14696914 -0.06189952 -0.14653547 0.04559694 -0.055793352 -0.15346421 -0.018413642
-0.14588575 -0.20279522 0.13923737 -0.10783116 0.13471785 -0.02090019 -0.046330675 0.21108468
-0.037961137 0.1637815 -0.049425762 -0.16848578 -0.26188368 0.0651575 0.16253936 -0.076836094
0.15384133 -0.05266882 -0.09663221 0.027129378 0.19199674 0.018519063 0.26738727 0.11714862
0.15368442 -0.2607877 0.040499058 -0.0017977528 -0.15004076 0.15471135 0.054805074 -0.14915465
-0.17770337 0.122147284 -0.09702487 -0.07658979 -0.1608219 -0.115616955 -0.062719114 -0.5219952
-0.30144224 0.23261748 -0.21492194 -0.22067635 -0.24585737 0.16451605 0.25505033 0.022615638
-0.017521795 0.15523392 0.012037522 0.14832717 0.19954659 -0.029520899 0.0007026156 -0.10060856
0.09585876 -0.08326036 -0.0937682 -0.274364 -0.21742561 -0.0028532005 0.21218073 -0.21611665
0.05729746 -0.044501055 0.007235063 -0.121943615 -0.16808833 -0.11534514 0.16869512 -0.057548847

bias f4 [10]
00000000: 0333 05be b2a3 e3bd eeab 67be f3d2 d23d
00000010: 9264 9e3d e678 043e b16b 7e3e 4b4e 37be
00000020: e0ae 803e c758 cc3d
-0.1300774 -0.11115207 -0.2262418 0.102941416 0.07734026 0.12936744 0.24845769 -0.1790096
0.2513342 0.099778704

weight f4 [10, 16]
00000000: a54f 43bd 24d0 483e 2678 d83d a57f 41bd
00000010: 103c 323e e02d 033e c5e2 ccbd 13a4 84bc
00000020: 9dd8 273e b20b 2b3e 56e5 f93d 0461 03be
00000030: 514b b1bd be0a 853e cf1e 543e eb2e 31be
00000040: dbe2 49bd 3058 c13c b7a8 11be 913b afbe
00000050: 6a44 91be 4052 163d 9ab2 4abc 4df5 bebe
00000060: d97f 7b3d fa59 8a3c 8624 653e df0e 04bd
00000070: 977b 373e 8950 003e e6bb f23d c14e 91bd
00000080: 0fe0 3a3e 2439 f83d 8ac1 023d b884 8a3e
00000090: bb0d 41be 782f 083e 332f 8abe dc02 663a
000000a0: 4982 c53d 8694 cbbd c06f 8fbe 004e 16be
000000b0: be4d 44bc 53f7 913d 523c b0bd f01e 26bd
000000c0: 2bb1 9f3e 4416 c63c d802 40bc 75f7 d0bd
000000d0: 6ab9 3a3e 4aa6 8bbd 4a5c 213d e731 973d
000000e0: afd7 c83d bde0 923c b724 9c3d dce9 24bd
000000f0: baa6 b3be f248 18be 4f41 9dbe 719e 5fbe
00000100: ce5b 493e 64bc 2ebd dd59 303d 6de7 9c3e
00000110: 8f57 1f3e 2322 1b3e 848c 61be 4188 4c3e
00000120: 8af4 20be 9d05 113e e94c 1ebe 031e 313e
00000130: 7bbc 7a3d 0fdc 8dbe aedf 983d f16f 4ebd
00000140: 41ce 9a3d 6dd1 debc 9777 82be f082 37be
00000150: 5cb8 01be 4064 68be bf97 a43a bfdd 713e
00000160: 28f8 493d 1d58 36be bf87 743e 5451 e93d
00000170: f831 07be 2c62 5fbd 9d7b 7f3e 354d 34bd
00000180: c24c a03d c995 7d3e 8ae6 e23e e236 0b3e
00000190: 1a84 2d3e 5c87 b63e 1588 4a3e 7808 bd3e
000001a0: 1b34 cf3e 7f92 2c3e c202 5f3e 08d2 6f3e
000001b0: 381d 1a3e a288 a43d 0a37 903c 86fa 78be
000001c0: aa1e a6bd f950 41be 8581 e4bd 69e0 b4ba
000001d0: 4ba7 533d 5d36 2dbe 9b52 abbe ca63 80bc
000001e0: e1e8 393c 6091 30be c57d 82be 9745 a1bd
000001f0: dda0 f3bc 333e 743e 10c8 0b3a d97b 04be
00000200: 6147 a23e 4bdf 9e3c d129 b53c 4580 d2bd
00000210: 8033 853e dfbe 4e3e 2d57 6e3d 62c3 a53e
00000220: f15f 433e 789c 6f3e 456f aa3e 13d1 5e3e
00000230: 4d9a b13e 8d15 173e ac55 70bd db35 dc3c
00000240: 5b52 2a3e ff79 f7bd a217 97be 798c 23be
00000250: f2a9 30bd e4fa a3bb b5f6 82be 2205 7abd
00000260: 6814 cc3d fa74 ddbd 75e1 7b3e f21f 1b3e
00000270: f6b9 a2bc af8e 373e 438e 9b3e 1569 363b
-0.047683377 0.1961065 0.105697915 -0.047240872 0.17405725 0.12810469 -0.1000419 -0.016191518
0.16391225 0.1670368 0.122019455 -0.12829977 -0.086569436 0.25984758 0.20714878 -0.17303054
-0.04928861 0.023601621 -0.14224516 -0.34225133 -0.28372508 0.036699533 -0.0123716835 -0.37296525
0.061401222 0.016888607 0.22377214 -0.032240745 0.1791824 0.12530722 0.11852245 -0.07095099
0.18249534 0.12120274 0.031922854 0.2705438 -0.18852894 0.13299358 -0.26989135 0.000877423
0.096439905 -0.09940438 -0.28014946 -0.14678192 -0.011981426 0.071272515 -0.08605255 -0.040556848
0.31189856 0.024180539 -0.011719428 -0.10203449 0.18234792 -0.068188265 0.039394654 0.07382565
0.098067634 0.01792943 0.0762419 -0.04026209 -0.3508814 -0.14871576 -0.3071389 -0.21837784
0.19663927 -0.042660132 0.04305445 0.30645314 0.15560745 0.15149741 -0.22026259 0.19973852
-0.15718284 0.14162298 -0.15459026 0.17296605 0.061214905 -0.27706954 0.074645385 -0.050399724
0.07558871 -0.027199471 -0.25481865 -0.17921042 -0.12667984 -0.22694492 0.0012557431 0.23619746
0.049308926 -0.1780705 0.23879908 0.11392465 -0.13202655 -0.054536983 0.24949498 -0.044018943
0.078271404 0.2476417 0.44316512 0.13595155 0.16944924 0.35650146 0.19778474 0.36920524
0.4046944 0.16852759 0.21778396 0.23419964 0.15050209 0.08033873 0.01760437 -0.24314317
-0.081113175 -0.18878545 -0.111575164 -0.001379979 0.051673215 -0.16915269 -0.3346146 -0.015672583
0.011347027 -0.17242956 -0.2548658 -0.07874601 -0.029739792 0.23851852 0.0005332241 -0.12937869
0.31695083 0.019393584 0.022114666 -0.10278372 0.26015854 0.20189999 0.058188606 0.32375628
0.19079567 0.23399532 0.33288017 0.21759443 0.34688035 0.14754315 -0.058675453 0.026881149
0.16632979 -0.12083816 -0.29510218 -0.15971555 -0.043130822 -0.0050042737 -0.25578848 -0.06104005
0.0996483 -0.10813327 0.24597724 0.15148905 -0.019864064 0.17925523 0.30381975 0.002783363

bias f4 [10]
00000000: a3ab 1ebe 5307 74be 5c4f 09bc 7b90 0b3d
00000010: ff12 443e 1dae 2ebe b508 923e 82fb 0d3d
00000020: 1d09 d43d 27be 9cbc
-0.15495162 -0.23830919 -0.008380737 0.034073334 0.19147871 -0.17058606 0.28522268 0.034663685
0.10353301 -0.01913364
